water_capacity_model.pth (torch, 12170 bytes, 5 tensors)

fc1.weight f4 [64, 3]
00000000: ec00 abbf 6a35 933f b32b aebf f6f4 ce3f
00000010: aec2 b13f 710f bf3f 2f60 a53f b65f b9bf
00000020: fad3 d4bf 6f84 bebf 17ff 9a3f 0394 d13f
00000030: 9c5b be3f fe4d b9bf f8ca b93f d0c8 8d3f
00000040: 7995 85bf a1c5 e13f 8d63 b3bf f469 c43f
00000050: c984 b03f 85f5 bd3f 257b 9e3f c834 c3bf
00000060: a4ca d7bf ef26 ba3f 3b96 c6bf ffb1 bdbf
00000070: 94e0 ba3f 8df8 d83f 97be acbf 4ea7 a1bf
00000080: 66b6 bbbf 6bc5 c83f af66 d73f 976d d3bf
00000090: 18f8 d3bf 7702 cfbf 5dad c13f 386b ad3f
000000a0: 6a54 973f 9b53 cf3f 6461 923f b6a2 a6bf
000000b0: 4054 a93f 79cd bf3f b004 d23f 666f 8cbf
000000c0: 638f cbbf 13bd c7bf fcd6 aabf 83b6 933f
000000d0: 4773 82bf 87b7 e13f cd4d b2bf 7b4b a33f
000000e0: 4b98 df3f 3b13 ca3f 67b8 af3f 6e07 98bf
000000f0: 5afb b3bf debe 97bf a859 c2bf f8b5 b03f
00000100: 146d 8cbf 97f7 bdbf be15 d0bf 06f8 aabf
00000110: 1a22 bf3f 6a6a abbf 08de b83f 7834 a5bf
00000120: 6c23 b53f 357e af3f 85c8 d0bf f014 c53f
00000130: 8f57 b4bf 9a7b cfbf 1b23 cabf 17c1 d63f
00000140: f49b e93f 07a4 af3f 7606 913f f6fc b4bf
00000150: 663e cb3f c9bd c2bf 5566 a03f e039 c03f
00000160: 4436 bd3f 9d6e d0bf 942d b4bf a4c6 b9bf
00000170: f3e3 c83f 5c2c 91bf 2127 ce3f f8ca b53f
00000180: 435c aabf 2579 a8bf 78d6 cd3f fe0a dbbf
00000190: 0c37 ae3f ebaf e03f d016 c0bf 16af a6bf
000001a0: aedf b2bf 1a59 afbf d58b 8cbf 8b16 cdbf
000001b0: 7e3d 883f 0434 8d3f c3e8 b4bf f229 b2bf
000001c0: b90d b03f b73f a6bf 7631 a2bf 078c 9dbf
000001d0: 888e a83f 734a d03f c8d0 4dbf 54ef d33f
000001e0: aa9a 9c3f 7182 b63f 3c1e a5bf e698 8fbf
000001f0: ba1d 953f 5cb1 ac3f 046b b2bf cbb3 97bf
00000200: d687 ae3f 00fc ad3f 6ecd a2bf 2254 99bf
00000210: ff96 ad3f f529 963f 26fa 8dbf 84d2 c63f
00000220: 5b8a 8bbf 2c0e b03f 810f adbf 40d2 a33f
00000230: cb99 cd3f 46e1 d6bf d84c b0bf 05de d13f
00000240: ceae 963f 625d 93bf 5b3c babf 3ea7 c0bf
00000250: 4feb 913f b675 d1bf bd98 a63f 9439 c03f
00000260: 213d 95bf 5041 e6bf 0ae3 9a3f 5ea0 b9bf
00000270: 395f b03f c1a6 80bf 69e8 c7bf 5b13 c1bf
00000280: a8e3 a8bf 732a aa3f 5d51 b4bf cc4d 933f
00000290: 6367 b7bf 6ef6 873f ec8f 93bf 17fd eb3f
000002a0: d97b 903f e942 8f3f 11c0 acbf 10c2 a73f
000002b0: 72d6 b9bf dd9d d2bf c321 903f 8f7d 8dbf
000002c0: 3b1c b3bf 5b9f adbd 3be4 00be 84ae 24bd
000002d0: ab32 ca3f 73fe c63f 787c ed3f 5f8c a73f
000002e0: 3a15 b03f 4ebb d63f 9a7d c13f f205 b0bf
000002f0: 90c5 d9bf 5cd7 a5bf d3fe c3bf 0239 c5bf
-1.3359656 1.1500676 -1.3607086 1.6168506 1.3887537 1.4926587 1.2919978 -1.4482334
-1.662719 -1.4884166 1.2109097 1.6373295 1.4871707 -1.4476926 1.4515066 1.1076908
-1.043624 1.7638437 -1.4014755 1.5344834 1.3790523 1.4840552 1.2381331 -1.5250483
-1.6858716 1.4543132 -1.5514597 -1.4819945 1.4599786 1.6950852 -1.3495663 -1.2629182
-1.4665039 1.5685247 1.6828212 -1.6517819 -1.6560087 -1.6172627 1.5131031 1.3548346
1.1822636 1.6197389 1.1435971 -1.3018405 1.3228836 1.498458 1.640768 -1.0971496
-1.5903133 -1.5604576 -1.3346858 1.1540073 -1.019143 1.7634133 -1.3929993 1.275741
1.7468351 1.5787119 1.372815 -1.1877267 -1.4061081 -1.1855123 -1.5183611 1.3805532
-1.0970788 -1.4841183 -1.6256635 -1.3356941 1.4932282 -1.339185 1.4442759 -1.2906637
1.4151435 1.371039 -1.6311194 1.5397015 -1.4089221 -1.6209595 -1.5791963 1.6777676
1.8250718 1.3721932 1.1330097 -1.4139698 1.5878417 -1.5214168 1.2531229 1.5017662
1.4782186 -1.6283756 -1.4076409 -1.4513745 1.5694565 -1.1341662 1.6105691 1.4202566
-1.3309406 -1.316197 1.6081076 -1.711273 1.3610549 1.7553686 -1.5006962 -1.3022182
-1.3974512 -1.3699067 -1.0980173 -1.6022505 1.0643766 1.1031499 -1.4133533 -1.3919051
1.3754188 -1.2988194 -1.2671344 -1.2308358 1.3168497 1.627272 -0.803967 1.6557412
1.22347 1.4258558 -1.2899852 -1.1218536 1.1649697 1.3491626 -1.3938909 -1.1851743
1.3635204 1.3592529 -1.2718942 -1.19788 1.3561705 1.1731554 -1.1091964 1.5532994
-1.0901598 1.3754325 -1.3520356 1.2798538 1.6062559 -1.6787498 -1.3773451 1.639588
1.1772096 -1.1512873 -1.4549669 -1.5051038 1.1399935 -1.6364048 1.3015362 1.5017571
-1.165928 -1.7988682 1.2100537 -1.4502065 1.377906 -1.0050889 -1.5617801 -1.5084032
-1.3194475 1.3294204 -1.408733 1.1508117 -1.4328426 1.0622079 -1.1528296 1.8436612
1.1287795 1.1192294 -1.3496114 1.3106098 -1.4518569 -1.6454426 1.1260303 -1.1053942
-1.399299 -0.0847766 -0.12587063 -0.040205494 1.5796713 1.5546402 1.855361 1.3089713
1.3756478 1.6775911 1.5116456 -1.3751814 -1.7013416 -1.2956347 -1.5312141 -1.5408022

fc1.bias f4 [64]
00000000: efd5 933f b705 a13f 8a60 933f a23d a13f
00000010: f042 583f 5b5d d53f 5785 883f 4f57 dc3f
00000020: 41bf a23f b2ce 7b3f 8ed4 a83f de0a 873f
00000030: 0527 b03f 69df b23f 6903 bc3f d8dc c93f
00000040: ed30 cd3f fcba 513f 038d 8f3f 700a ae3f
00000050: eeee b43f cd55 c63f 22fb 473f 6654 633f
00000060: e815 ba3f 815c 4e3f 1fca af3f cf74 d83f
00000070: 6e52 bb3f d2e0 d63f bc61 913f 9c08 cb3f
00000080: 689e cd3f 8838 c43f 435e 9f3f 1f67 bc3f
00000090: 2e1e c23f 3821 723f 74f2 693f 06bb cb3f
000000a0: 1ed7 303f ce38 bf3f fa6b 4d3f ff86 d53f
000000b0: 4246 8d3f 605b 4d3f d953 833f a338 ae3f
000000c0: 6836 3e3f 0ab5 393f 17af bf3f 010c 363f
000000d0: e82c 773f d72d 4c3f ea2f 8d3f 7b45 dd3f
000000e0: aafe 8e3f 2434 973f d98e 323f b0a8 c6be
000000f0: a44a e23f e81a 3d3f b7a4 743f 2edb c03f
1.1549662 1.2579869 1.1513836 1.2596934 0.8447714 1.6669115 1.0665692 1.7214144
1.2714616 0.98362267 1.3189867 1.0550191 1.3761908 1.3974429 1.4688541 1.5770521
1.6030556 0.8192594 1.1214908 1.3596935 1.4135416 1.5494934 0.78117573 0.88800657
1.4537935 0.806099 1.3733557 1.6910647 1.463453 1.678736 1.1357951 1.5862002
1.6063967 1.5329752 1.2450641 1.471897 1.516546 0.9458194 0.9138558 1.591645
0.6907824 1.493921 0.80242884 1.6681823 1.1037066 0.8021755 1.0259963 1.3611034
0.7430177 0.7254187 1.4975308 0.71112067 0.96552896 0.79757446 1.1030247 1.7286829
1.1171467 1.1812787 0.6974922 -0.38800573 1.7679029 0.7386918 0.95563835 1.5066888

fc2.weight f4 [32, 64]
00000000: 8e57 613c 992a 23bd c664 ca3d 4101 0bbe
00000010: 4651 e93c eaa3 0e3d 537e 24bd 8772 33bd
00000020: 3160 e1bb 9c55 69bd a9c1 4f3d 740e 7cbd
00000030: 6be1 d6bc e18d 993d ad88 663d 0626 27bd
00000040: 906c 3a3d 5d3f 7c3d cf13 01bc 1c45 0b3d
00000050: a6a0 fe3a 0582 bfbc 84bd 563c 0e1d b03d
00000060: 0cae c3bd ef51 1a3d 7d9e c7bc b9a6 f23b
00000070: 6102 d4bd 76c7 8c3d d50d 20be 9259 f8bd
00000080: c95f c93c 736d 7bbd 4f62 ccbd aa2e 733d
00000090: 5219 b53c c33c 553d 0f0f 393d af73 843d
000000a0: b098 a03d d095 9b3d 4f3b eabc f836 babd
000000b0: e276 3fbc fe3a 323d 20c5 e7bd 5728 1ebd
000000c0: 1adc 89bd 039a fbbd a326 b6bd 011a 47bc
000000d0: 48fe 4dbd 310c d43c 4d57 e5bd 97f7 f9bc
000000e0: 2ec5 8a3c d69a 0fbe 3372 95bd 1946 b2bd
000000f0: 644f 5f3d b914 59bd f3a1 14be 17a0 a4bd
00000100: 2f0d 9e3f c54e 893f 3c92 713f ff1e 9c3f
00000110: b2c0 9a3f dd8f 6d3f ac35 973f 9345 8d3f
00000120: a73a 7f3f 6a68 a03f cc10 8f3f 7d2d 8b3f
00000130: 642e 8f3f 7c51 7f3f 10d1 923f c565 643f
00000140: 0213 8c3f 113b 9c3f 615d 9e3f 975a 873f
00000150: 949b 6f3f d5f2 683f 545e 9a3f 49dc 983f
00000160: 5ad7 853f 1cf7 6d3f 9a4a 973f 58d7 7d3f
00000170: bf3f 853f e125 6d3f 427d 8f3f 9e5f 823f
00000180: 5fdc 913f 0819 893f 1f3e 7b3f ea0a 833f
00000190: e22f 903f c09e 993f f71a ab3f ac21 8e3f
000001a0: ea02 9d3f 0408 8b3f b4ef 923f 583a 643f
000001b0: 1dd9 853f fa69 9d3f 07f8 953f 1b88 8c3f
000001c0: ded9 893f 4e28 993f b4a4 683f 3ee1 8d3f
000001d0: 80c5 863f cbc4 973f 8f33 943f 32d7 873f
000001e0: 2b61 863f 094d 743f cde4 a53f 8ca7 31bd
000001f0: 01d4 863f d833 a23f 1730 723f 585f 853f
00000200: 58c0 c43d 7f55 05bc 436b da3c 83aa 0bbd
00000210: 26e3 7b3d 1f5c 25bc c752 ddbd f3c6 34bb
00000220: 8a15 0dbd bcb9 00be b1fe 493c 751d f6bd
00000230: 46b5 843d 7531 bc3b b340 dcbd 8714 d3bd
00000240: 8ffa edbd 15cc 9d3d a1b7 a63c 03c2 18bd
00000250: fdb1 923d 1a5c ccbd 14fc a33b ffdd 02be
00000260: 07a4 abbc c63f be3d a63a 47bc dedd b13d
00000270: 3832 b7ba a473 96bc 1080 133c 629b c53d
00000280: 9247 b93d de29 0abe 3d54 f9bd 5b45 033d
00000290: e174 f63c 0394 533d 6209 fcbb 906f 6e3c
000002a0: 624e d23d 73bb 673d e8bd 16bd ffca d4bd
000002b0: 8039 e5bd 7fa8 c63c 51cc 40bd a262 b93d
000002c0: d561 cfbd 4630 60bd efd8 ab3d 1dbd 6d3d
000002d0: 3da6 85bc 238b 4cbd fa08 75bd f04d 9ebd
000002e0: 2849 ee3c b16c 0dbe b3ac cebb 103a c93c
000002f0: 3497 2abc 0bcf 943d dc38 bfbc 1b62 03be
00000300: bdf1 913f 2469 933f 6d80 783f 4b5f 8b3f
00000310: cffd 9d3f f990 8e3f 62d0 8e3f 2524 8e3f
00000320: 0e5b 9a3f 8f3b 8c3f 7e77 993f 7f25 963f
00000330: 1017 913f 6691 a13f e4f3 9d3f 63b4 733f
00000340: f10e 9a3f 5bc6 9e3f 2b74 a63f c180 963f
00000350: c2fd 993f ae0a 793f 20e7 963f 7924 9e3f
00000360: 0729 933f dafb 813f 31fb 943f 32b9 8c3f
00000370: 2748 8b3f 0a13 8b3f 2774 883f c3fc 9d3f
00000380: b935 833f 5718 9e3f 1341 883f 38df 933f
00000390: bdb6 913f 14f6 973f 07a4 a53f 36b0 823f
000003a0: 35b8 993f 326f 8e3f a7ba b33f 654a 863f
000003b0: fa6b 903f 226c 953f 2e8b 8f3f c6d9 883f
000003c0: dea3 a13f e714 923f 5c72 8c3f cc14 8c3f
000003d0: f4fd 953f b746 a03f 8a74 9c3f 1403 793f
000003e0: dace 853f 1439 8d3f f716 a13f 8403 85bd
000003f0: 3e87 8f3f 9603 a53f ab82 773f d2c2 873f
0.013753785 -0.039835546 0.09882502 -0.13574697 0.028481137 0.03482429 -0.040159535 -0.043810394
-0.006877922 -0.05696641 0.050721798 -0.06153722 -0.026230535 0.074977644 0.056282688 -0.040807746
0.04551369 0.061583865 -0.007878258 0.034001455 0.0019426539 -0.023377428 0.0131067075 0.08599292
-0.09554681 0.037675794 -0.024367565 0.007405129 -0.10352016 0.06873982 -0.15630277 -0.12126459
0.024581807 -0.061383676 -0.099796884 0.059370674 0.0221068 0.0520599 0.045180377 0.064673774
0.07841623 0.07596934 -0.028592734 -0.09092516 -0.011686059 0.04351329 -0.113168955 -0.03861269
-0.06731434 -0.12285235 -0.08894088 -0.012152196 -0.05029133 0.02588472 -0.11198292 -0.030513568
0.016939726 -0.14023909 -0.072971724 -0.08704776 0.054519072 -0.05299828 -0.14514904 -0.08038347
1.2347773 1.0727164 0.9436376 1.2196959 1.2090056 0.9279764 1.1813254 1.1036857
0.9969887 1.2531865 1.1177001 1.0873257 1.1186032 0.9973371 1.1470051 0.8921779
1.0943301 1.2205526 1.2372247 1.0574521 0.9359677 0.9099553 1.2060037 1.1942226
1.0456345 0.92955184 1.1819642 0.99156713 1.0410079 0.92635924 1.1210101 1.018543
1.1395377 1.0710764 0.98141664 1.0237706 1.1264613 1.2001572 1.3367604 1.1104026
1.2266514 1.0861821 1.1479402 0.89151525 1.0456883 1.2297966 1.1716317 1.0979036
1.0769613 1.1965425 0.9087632 1.1084363 1.0529022 1.1856931 1.1578234 1.0612547
1.0498403 0.95430046 1.296045 -0.043372676 1.0533448 1.2672071 0.9460463 1.0419722
0.09606999 -0.00813806 0.026662474 -0.03409816 0.061495923 -0.010092764 -0.10806804 -0.0027584403
-0.03444437 -0.12570852 0.01232879 -0.12017337 0.06479888 0.0057432004 -0.10754528 -0.1030665
-0.11620056 0.07704941 0.020351233 -0.0372944 0.07162855 -0.099785045 0.0050044153 -0.12779997
-0.020952238 0.092895076 -0.012159979 0.08684896 -0.0013976758 -0.018365689 0.0090027 0.096487775
0.09046854 -0.13492534 -0.1217427 0.032048564 0.03008503 0.051654827 -0.007691548 0.014552966
0.102688566 0.05657525 -0.036802202 -0.10390281 -0.11192608 0.024250267 -0.04706985 0.09052016
-0.10126082 -0.054733537 0.08390986 0.05804168 -0.01631462 -0.04993738 -0.059823014 -0.07729709
0.029087618 -0.13810994 -0.0063072084 0.02456382 -0.010412026 0.07266053 -0.023342542 -0.12830393
1.1401898 1.1516461 0.9707096 1.0888456 1.2343081 1.1137992 1.1157343 1.110478
1.2059038 1.0955676 1.1989591 1.1730193 1.1335163 1.2622497 1.2340055 0.95197123
1.203581 1.2404283 1.3004202 1.1758043 1.2030566 0.9728192 1.1789284 1.235488
1.1496896 1.0154984 1.1639158 1.0994017 1.0881394 1.0865185 1.0660447 1.2342762
1.025077 1.2351178 1.0644859 1.1552496 1.1383892 1.1871972 1.2940682 1.0210025
1.200934 1.1127684 1.4041337 1.0491453 1.1282952 1.1673625 1.1214349 1.0691459
1.2628133 1.1412629 1.09724 1.0943847 1.1718125 1.252158 1.2223065 0.9727032
1.0453751 1.1033044 1.2585133 -0.06494811 1.1213148 1.2891719 0.9668376 1.060633

fc2.bias f4 [32]
00000000: 4d22 13bd c827 603f 4685 abbd 71b7 723f
00000010: 3c47 23bd 3302 5f3f d8fa 623f 531c 8b3f
00000020: 5575 6e3f 0f4d 45bc aee6 683f cb97 37bd
00000030: 3cca bd3d 378d 753f fa26 593f 73c9 823f
00000040: 12f3 9d3d a939 593f 8d07 673f d366 0ebe
00000050: 0bf8 e7bd 428d 763f 4994 843f 6044 743f
00000060: 8462 7c3f a380 743f c980 87bd 1fda 673f
00000070: 6350 26bd 0f42 813f cc19 f9bd 4365 743f
-0.035921384 0.875607 -0.08375029 0.9481116 -0.039862856 0.8711273 0.8866401 1.0868019
0.93147784 -0.012042298 0.9097699 -0.044822495 0.09267089 0.959186 0.848251 1.0217727
0.077123776 0.8485361 0.90245897 -0.13906412 -0.11326607 0.9630929 1.0357753 0.9541683
0.9858782 0.95508784 -0.06616361 0.905672 -0.040604006 1.0098284 -0.121631235 0.95467013

fc3.weight f4 [1, 32]
00000000: fb28 0fbe a17f a13f 5f9a b2bc 5da1 933f
00000010: 20c8 e2bb 1cfa 963f ef50 a03f 5635 913f
00000020: 985a 9a3f f4dd e0bd ec62 9a3f c257 0ebe
00000030: 5e72 06be b190 963f 38fb a53f 88a7 943f
00000040: 4917 16be f364 a83f 1885 973f 47dd ccbd
00000050: 3fe3 13be 146d a43f 1b88 923f 97c5 9c3f
00000060: 2837 9b3f 4660 8f3f bb70 d8bc edc0 9a3f
00000070: 1d0b 15bd 9b78 963f b85c 08be b8ee 9e3f
-0.13980477 1.2617074 -0.021802125 1.1533619 -0.0069208294 1.1795077 1.2524699 1.1344402
1.2058897 -0.10979834 1.2061439 -0.13900664 -0.13129565 1.1762906 1.2967291 1.1613626
-0.1465732 1.3155807 1.1837492 -0.10003143 -0.14442156 1.2845788 1.1447786 1.22478
1.2126207 1.1201255 -0.026420942 1.2090126 -0.03638755 1.1755556 -0.1331662 1.2416601
