water_capacity_model.pth (torch, 12170 bytes, 5 tensors)

fc1.weight f4 [64, 3]
0	0xbfa568d2	-1.2922614
1	0x3f9f63b8	1.2452307
2	0x3fd03ac1	1.626793
3	0xbfca645e	-1.581188
4	0xbfd58bc5	-1.6683279
5	0x3fcf3970	1.6189404
6	0x3f97e2ba	1.1866066
7	0xbfd2453d	-1.642738
8	0x3f9328ce	1.1496828
9	0xbfd58969	-1.6682559
10	0x3f642a88	0.891274
11	0x3fe93bb7	1.8221349
12	0x3fac5f8c	1.3466659
13	0x3f91ae99	1.1381408
14	0x3fa644ec	1.2989783
15	0xbfd81772	-1.6882155
16	0xbfe3e9ba	-1.7805703
17	0x3fcf56bb	1.6198343
18	0xbfd3d55f	-1.6549491
19	0xbfdb3a58	-1.712718
20	0x3fbf76c5	1.495812
21	0xbfb2a590	-1.3956776
22	0x3fbb86ee	1.4650552
23	0xbfdff647	-1.7497033
24	0x3fc81b62	1.5633357
25	0xbfa2b2bd	-1.2710797
26	0xbfbbfabe	-1.4685895
27	0x3faeaf53	1.3647255
28	0x3f7b58e4	0.9818251
29	0x3fa5c8c3	1.2951893
30	0xbfb28c87	-1.3949136
31	0x3fb42355	1.4073282
32	0xbfd48027	-1.6601609
33	0x3f9b3d01	1.2127992
34	0x3f9c637c	1.221786
35	0x3fd4b512	1.6617758
36	0x3fce7e21	1.6132241
37	0xbfc1ec61	-1.5150262
38	0xbfd06de5	-1.6283537
39	0xbfcca6c5	-1.5988394
40	0xbfc553b2	-1.5416167
41	0x3fb3bb37	1.4041508
42	0xbfa1ce43	-1.2641071
43	0x3f6fca79	0.93668324
44	0xbfa66a4f	-1.3001193
45	0x3fb880cb	1.4414304
46	0xbfb8cb5d	-1.4437062
47	0xbfc0d1d0	-1.506403
48	0xbf9aa078	-1.2080221
49	0x3f97c252	1.1856177
50	0xbfa7a53f	-1.3097304
51	0xbf91ee51	-1.1400853
52	0xbfd17304	-1.6363225
53	0xbfd47685	-1.6598669
54	0xbfbea194	-1.489306
55	0xbfbf0ad5	-1.4925181
56	0x3fd612a1	1.6724435
57	0xbfb216bc	-1.3913188
58	0xbfe07afc	-1.7537532
59	0xbfa9cdf1	-1.3265973
60	0x3fb784fa	1.4337456
61	0x3fa17d1d	1.2616307
62	0x3fc2e949	1.5227443
63	0xbf885465	-1.0650755
64	0x3f84443c	1.0333323
65	0xbfbbc4e2	-1.4669459
66	0x3fd1cc03	1.6390384
67	0x3f5807ea	0.84387076
68	0x3fb899f6	1.4421985
69	0xbf9b1c38	-1.2117987
70	0x3fb9de40	1.452095
71	0xbfb5fa9b	-1.4217104
72	0x3fd43999	1.6580077
73	0x3f831c45	1.0243002
74	0xbfd30bc5	-1.6487967
75	0xbfcf36fe	-1.6188657
76	0xbfe60e9d	-1.797321
77	0x3fd265a3	1.6437267
78	0xbfa8ea3a	-1.319648
79	0x3fbd70a1	1.4799997
80	0x3fc9f4d3	1.577784
81	0xbfa3950d	-1.2779862
82	0x3fbaefba	1.4604409
83	0x3fe241ce	1.7676332
84	0x3f9b7b3d	1.2146984
85	0xbfdc7677	-1.7223653
86	0x3fddce8d	1.7328659
87	0x3fe3e0b7	1.7802953
88	0xbfd1a901	-1.6379701
89	0xbfa95fd0	-1.3232365
90	0x3fa032be	1.2515485
91	0x3f785184	0.9699938
92	0x3fbf4c81	1.4945222
93	0x3fc06d1c	1.5033298
94	0x3f8de11e	1.1084325
95	0x3fd15053	1.6352638
96	0xbfa9fe25	-1.3280684
97	0x3f7771ec	0.96658206
98	0xbfb38630	-1.4025326
99	0xbfa02c1b	-1.251346
100	0x3f9ae231	1.2100278
101	0xbfdbfa3f	-1.7185744
102	0xbf93b71a	-1.1540253
103	0x3fc07a0c	1.5037246
104	0x3fc2dd12	1.5223715
105	0x3fbbc11f	1.4668311
106	0x3fa6cb52	1.3030798
107	0x3fc78b7f	1.5589446
108	0xbfa2a1ec	-1.2705665
109	0xbfc94912	-1.5725424
110	0x3fc25995	1.5183588
111	0x3f94e57b	1.1632532
112	0xbfc7fb60	-1.5623589
113	0x3fade15a	1.3584397
114	0x3fdc81c4	1.7227101
115	0xbfaa4e6b	-1.3305181
116	0xbfd8e124	-1.6943707
117	0xbfbbe985	-1.468064
118	0xbfe00d6c	-1.7504096
119	0xbfa205a1	-1.2657968
120	0x3fde5835	1.7370669
121	0x3f852cc1	1.0404283
122	0xbfcc44a5	-1.5958449
123	0x3fadceb2	1.3578703
124	0xbfbd1305	-1.4771429
125	0xbfa97be7	-1.3240937
126	0xbfadca55	-1.3577372
127	0x3fa6b820	1.302494
128	0x3fda84a2	1.7071726
129	0xbfb8172c	-1.4382071
130	0x3eed120a	0.46302825
131	0xbfa8b87f	-1.3181304
132	0x3fe0c707	1.7560738
133	0x3f7e4c24	0.9933493
134	0x3fd18c7a	1.6370995
135	0xbfb77ed2	-1.4335577
136	0x3f50f75e	0.8162745
137	0xbfa6473f	-1.2990493
138	0x3fdeecf3	1.7416061
139	0x3f36caaa	0.7140299
140	0xbfd18e68	-1.6371584
141	0xbfb7f1a6	-1.437062
142	0xbfcf5ea1	-1.6200753
143	0x3fbf36cb	1.4938596
144	0xbfbd6dad	-1.4799095
145	0x3f9793fb	1.1842035
146	0xbfac9124	-1.3481793
147	0xbfcdb546	-1.6070945
148	0x3fb1d304	1.3892522
149	0x3fe940bc	1.822288
150	0x3fc9ef83	1.5776218
151	0x3f57dbae	0.8431958
152	0xbfbca1dd	-1.4736897
153	0xbfa7a755	-1.3097941
154	0x3f53fb17	0.8280501
155	0xbfd6b240	-1.6773148
156	0x3f9a0acb	1.2034544
157	0xbfd6b1f5	-1.6773058
158	0x3fd9c85c	1.701427
159	0xbfd41047	-1.6567467
160	0x3f8411cd	1.0317932
161	0xbfc51885	-1.5398108
162	0x3fd75a72	1.6824477
163	0xbfa86006	-1.3154304
164	0xbfc8a715	-1.5675989
165	0xbfa305ca	-1.2736142
166	0x3fb8cd70	1.4437695
167	0xbfaea349	-1.3643581
168	0x3fbdc31b	1.4825166
169	0x3f29f0d6	0.6638311
170	0xbfbabe55	-1.4589335
171	0xbfcee091	-1.6162282
172	0x3f9a3d05	1.2049872
173	0xbfa56e07	-1.2924203
174	0x3fd6564f	1.6745089
175	0xbfa751af	-1.3071803
176	0xbfc2872a	-1.5197499
177	0x3fc8a10b	1.5674146
178	0x3fa10790	1.2580433
179	0x3fe45842	1.7839434
180	0x3fe65f76	1.7997882
181	0x3faabc25	1.3338667
182	0xbfc35b6a	-1.5262272
183	0xbfa21836	-1.2663639
184	0x3f8796c5	1.0592886
185	0xbfcba2ac	-1.5909019
186	0x3f933377	1.1500081
187	0xbfda32bc	-1.7046733
188	0x3fae6003	1.362305
189	0x3fb66cb3	1.4251922
190	0x3f5a2af1	0.85221773
191	0x3fa84c66	1.3148315

fc1.bias f4 [64]
0	0x3f93ea63	1.1555904
1	0x3fa60c8a	1.2972577
2	0x3fe01a89	1.7508098
3	0x3fd53970	1.6658154
4	0x3f2f49df	0.68472093
5	0x3fd5f693	1.6715873
6	0x3f92fdad	1.1483666
7	0x3f925c24	1.1434369
8	0x3f973462	1.1812861
9	0x3f9240e2	1.1426051
10	0x3f4c4dbb	0.7980611
11	0x3f3467fc	0.7047117
12	0x3f6b8740	0.9200325
13	0x3f860102	1.0469058
14	0x3f9f0bf2	1.242552
15	0x3f8e2c53	1.1107277
16	0x3f9f3dea	1.244077
17	0x3fe32d1b	1.774814
18	0x3f5ec764	0.87022996
19	0x3fa54d69	1.2914249
20	0x3f57f542	0.8435861
21	0x3f6fd1ca	0.9367949
22	0x3fac022c	1.3438163
23	0x3fd0c76c	1.6310859
24	0x3f88ebe1	1.0696985
25	0x3f6e1ff8	0.9301753
26	0x3f3a6c66	0.7282165
27	0x3fafece7	1.3744172
28	0x3fdbb658	1.7165022
29	0x3fcb1b9f	1.5867804
30	0x3f45cb9b	0.772638
31	0x3f4bc922	0.7960378
32	0x3f7baf10	0.98314
33	0x3fda8c78	1.7074118
34	0x3fc96976	1.5735309
35	0x3fa333e8	1.2750216
36	0x3fc48150	1.5351963
37	0x3f4facb2	0.8112289
38	0x3f7e48d3	0.9932987
39	0x3fcfe6ff	1.624237
40	0x3f838f8d	1.0278183
41	0x3f805cde	1.0028341
42	0x3f9d8e03	1.2308964
43	0x3fc52040	1.5400467
44	0x3fe07af3	1.7537521
45	0x3fcd0462	1.6016963
46	0x3fabea02	1.3430789
47	0x3fa434ac	1.2828574
48	0x3fc4713c	1.5347056
49	0x3fd3770b	1.6520704
50	0x3fc62a70	1.5481701
51	0x3fa494fa	1.2857964
52	0x3f8ae2c4	1.0850453
53	0x3f37b795	0.717645
54	0x3f7e9625	0.9944785
55	0x3fa60043	1.296883
56	0x3fd7c5fd	1.6857296
57	0x3f50025a	0.8125359
58	0x3fe149d0	1.7600651
59	0x3f81299a	1.0090821
60	0x3fbcb0df	1.4741477
61	0x3fa96d14	1.3236413
62	0x3f5d1b56	0.86369836
63	0x3fa6dc79	1.3036033

fc2.weight f4 [32, 64]
0	0x3f8718d9	1.0554458
1	0x3f962ac4	1.1731801
2	0x3f93e0af	1.1552943
3	0x3f8609a1	1.0471689
4	0x3fa14268	1.259839
5	0x3f9efc92	1.2420828
6	0x3fa07c24	1.2537885
7	0x3f803be1	1.0018274
8	0x3fa8df1e	1.319309
9	0x3f87132c	1.0552726
10	0x3f88016d	1.0625435
11	0x3f99c2db	1.201259
12	0x3f8fa974	1.1223588
13	0x3f9b294b	1.2121977
14	0x3f93fc68	1.1561403
15	0x3fab5c30	1.3387508
16	0x3f85cf88	1.0453959
17	0x3f90be57	1.1308087
18	0x3f9c26d9	1.2199355
19	0x3f977282	1.183182
20	0x3f9b2402	1.2120364
21	0x3f8ba27a	1.0908959
22	0x3f986e3a	1.1908638
23	0x3f78c9fb	0.971832
24	0x3f897a93	1.0740532
25	0x3f9f5f01	1.2450868
26	0x3f98630e	1.1905229
27	0x3f80c40e	1.0059831
28	0x3f9f91c6	1.2466362
29	0x3f96a87c	1.1770167
30	0x3fa84c57	1.3148297
31	0x3f8c9db2	1.0985625
32	0x3f93efd0	1.155756
33	0x3f780074	0.9687569
34	0x3f824f06	1.0180366
35	0x3f98e18e	1.1943834
36	0x3f9a2c32	1.2044737
37	0x3fab1175	1.3364702
38	0x3f93b5ba	1.1539834
39	0x3f991ee1	1.1962548
40	0x3f9e7f07	1.2382516
41	0x3f9a5aa2	1.2058909
42	0x3fa00577	1.2501668
43	0x3f867057	1.0503033
44	0x3f82958a	1.0201886
45	0x3f8935e0	1.0719566
46	0x3f9fd689	1.2487346
47	0x3f92240c	1.1417251
48	0x3f7f129a	0.9963776
49	0x3f88521c	1.0650058
50	0x3f9605bd	1.1720501
51	0x3f813e5d	1.0097157
52	0x3f8d7852	1.1052344
53	0x3fa1a300	1.2627869
54	0x3f95c674	1.1701188
55	0x3f84c153	1.0371498
56	0x3f9220af	1.1416224
57	0x3f965fe1	1.174801
58	0x3f84f389	1.0386821
59	0x3f90bc59	1.1307479
60	0x3f97c840	1.1857986
61	0x3f80bc39	1.0057441
62	0x3f9f986d	1.2468392
63	0x3f89d6c7	1.076867
64	0xbbef4a64	-0.007302569
65	0xbdfff4df	-0.12497877
66	0xbdf8bc1b	-0.12145253
67	0x3d261bbe	0.0405538
68	0xbb8adae0	-0.0042375177
69	0xbcf003d1	-0.029298695
70	0x3d7ee44d	0.062229443
71	0x3d73bdfd	0.05950736
72	0xbdf1fbba	-0.11815591
73	0xbdc6b90b	-0.09703263
74	0x3d7fb4c5	0.062428255
75	0xbdba3609	-0.09092338
76	0x3d6546f4	0.05597587
77	0x3d3aad01	0.045575146
78	0x3c8c4945	0.017124781
79	0xbd8fd8f2	-0.07023801
80	0xbc1eb8a5	-0.009687577
81	0xbde4c67f	-0.111706726
82	0xbe03f1b2	-0.12885168
83	0xbc69d68b	-0.014272342
84	0x3da4c573	0.08045473
85	0x3ca14be2	0.019689504
86	0xbd307009	-0.043075595
87	0xbd7423e5	-0.059604544
88	0x3d8eba1b	0.069690906
89	0xbd7253da	-0.059162
90	0xbdb9f2d0	-0.09079516
91	0x3d9abfed	0.07556138
92	0x3c4666bc	0.012109455
93	0xbde99b81	-0.11406613
94	0x3d9f1a74	0.077687174
95	0xbbef0dbd	-0.007295339
96	0x3d689cf4	0.056790307
97	0xbd474c87	-0.048656967
98	0xbd9cfb8b	-0.076651655
99	0xbde50657	-0.1118285
100	0x3d15b862	0.036552794
101	0xbd02baa5	-0.03191628
102	0xbd8bcf2a	-0.06826623
103	0xbdd5d93f	-0.10441827
104	0xbd51fab0	-0.051264465
105	0xbc885240	-0.016640782
106	0xbd46557f	-0.04842138
107	0xbccfd97f	-0.025372265
108	0xbc954e29	-0.018225746
109	0xbce3c452	-0.027803574
110	0x3c13c110	0.009018198
111	0x3d8f70d7	0.07003944
112	0xbd7ede54	-0.062223747
113	0x3de4fa13	0.1118051
114	0xbd804167	-0.062624745
115	0x3d8f6791	0.070021756
116	0x3d940284	0.07227042
117	0xbc696258	-0.014244638
118	0x3dddc0e4	0.108278066
119	0xbdfcfcbf	-0.12352895
120	0x3d0e0217	0.03466996
121	0x3de14e9d	0.110013224
122	0xbdf7be21	-0.12096811
123	0xbc3f1e64	-0.0116649605
124	0xbda15d4d	-0.07879124
125	0x3b7b62ed	0.0038358525
126	0x3d725666	0.059164427
127	0x3dacbdc1	0.0843463
128	0xbdfcb669	-0.123394795
129	0xbe0a466a	-0.13503423
130	0xbde29287	-0.11063104
131	0x3d13ee6c	0.03611605
132	0xbdd3b7aa	-0.103377655
133	0xbe082e1d	-0.13298841
134	0x3a80b17f	0.0009818523
135	0xbd4caad9	-0.04996762
136	0xbdccf1aa	-0.10007031
137	0xbcb5054d	-0.022097254
138	0xbd8db4ef	-0.06919276
139	0x3d759ba2	0.059962876
140	0xbd96f0fa	-0.073701814
141	0xbd8ded65	-0.06930045
142	0xbde614a7	-0.11234408
143	0xbdf08b2c	-0.11745295
144	0x3dcb724d	0.099339105
145	0xbdea7723	-0.11448505
146	0xbd030284	-0.03198482
147	0xbc15a9a0	-0.00913468
148	0xbd72e231	-0.059297744
149	0x3ccf6638	0.025317296
150	0x3c41139a	0.0117844585
151	0x3dc80bf7	0.09767907
152	0xbdaf2583	-0.08552077
153	0xbdf0edb4	-0.11764088
154	0x3d188883	0.037239563
155	0x3d5f666e	0.054541044
156	0xbdc38b44	-0.09548047
157	0xbda97488	-0.0827418
158	0x3d910daf	0.07082688
159	0xbde13b97	-0.10997694
160	0xbd243a24	-0.04009451
161	0xbd8e2f1f	-0.069425814
162	0x3d84af42	0.0647874
163	0xbd70aced	-0.058758665
164	0xbd15297a	-0.03641651
165	0x3c5b8a60	0.01339969
166	0x3ccc3b10	0.024930507
167	0x393a871f	0.00017788679
168	0x3db5e6fd	0.08881948
169	0xbd816534	-0.06318131
170	0x3dd49178	0.103793085
171	0xbda7eb2e	-0.08199154
172	0xbd08436b	-0.03326742
173	0x3d7e1e37	0.062040534
174	0xbd280e16	-0.04102906
175	0xbdbea716	-0.09309213
176	0x3d82bd02	0.06383707
177	0xbda76c9c	-0.081750125
178	0xbd89a2b3	-0.067204855
179	0xbd9e2ea4	-0.0772374
180	0x3d326e84	0.043562427
181	0xbd241f3b	-0.040068846
182	0xbde9ebbc	-0.11421916
183	0x3d0566ac	0.03256862
184	0xbcc6c82e	-0.024265375
185	0xbde6c8c9	-0.112687655
186	0xbdfc9c1b	-0.12334462
187	0xbcd45431	-0.025919052
188	0xbdb9c2b3	-0.09070339
189	0xbd269023	-0.040664803
190	0xbc887ab0	-0.016660064
191	0xbdf2d1c5	-0.118564166
192	0xbde9a976	-0.11409275
193	0xbda346d7	-0.07972496
194	0x3dd94932	0.10609664
195	0x3da011ca	0.07815893
196	0xbd0404fa	-0.03223131
197	0xbc477c16	-0.0121755805
198	0xbdaade12	-0.08343138
199	0xbc925d22	-0.017866675
200	0xbdb28c3e	-0.08718155
201	0xbc7d7067	-0.015468693
202	0xbd2f2382	-0.042758472
203	0x3d3b6b9d	0.045756925
204	0xbba60830	-0.005066894
205	0x3dd4fef5	0.10400192
206	0xbd8efde7	-0.06982022
207	0x3dd990c2	0.106233135
208	0xbd14cebe	-0.036329977
209	0xbdca53f9	-0.09879298
210	0x3dae1e3f	0.08501863
211	0xbde1cf54	-0.11025873
212	0xba444e33	-0.0007488459
213	0xbd68a013	-0.056793284
214	0xbd94a690	-0.07258332
215	0xbc1c4af1	-0.009539352
216	0xbe0ce3b5	-0.13758738
217	0x3bd6bf30	0.006553553
218	0xbdf053c4	-0.11734727
219	0xbd54fbf6	-0.0519981
220	0x39e59fd0	0.00043797353
221	0xbe0d0f0a	-0.13775268
222	0xbd133e0f	-0.035947856
223	0x3d6a89db	0.057260375
224	0x3da61ff2	0.08111562
225	0x3d616756	0.05503019
226	0x3d569bdd	0.052394737
227	0x3d7e7040	0.06211877
228	0xbd4c07d8	-0.049812168
229	0xbdb18bd0	-0.08669245
230	0x3dc043dd	0.09387944
231	0xbdbd3681	-0.092389114
232	0x3d03ec49	0.03220776
233	0xbdd02d36	-0.10164873
234	0xbdf9caed	-0.12196908
235	0xbd0825b0	-0.033239067
236	0x3da35cea	0.07976706
237	0xbcbf456a	-0.023348529
238	0x3d4ad7af	0.0495221
239	0x3c674c04	0.014117245
240	0xbc3e6af1	-0.0116221765
241	0xbccd1403	-0.025033956
242	0xbdaee8cd	-0.08540497
243	0xbd91c5f5	-0.071178354
244	0xbdf88e48	-0.12136513
245	0xbd993772	-0.074812785
246	0xbd7b2701	-0.061316494
247	0x3a87805b	0.0010337936
248	0xbcbc2275	-0.02296565
249	0x3c8adf00	0.016952038
250	0xbd4126da	-0.047156192
251	0xbd4a3015	-0.04936226
252	0x3c909a7a	0.017651785
253	0xbdf0d91a	-0.11760159
254	0x3cb9e3e0	0.022691667
255	0x3af6cab5	0.0018828722

fc2.bias f4 [32]
0	0x3f6e52ca	0.93095076
1	0x3cb7c6f1	0.02243373
2	0xbdec48d1	-0.11537326
3	0xbdc7f87c	-0.097641915
4	0x3f718c26	0.94354475
5	0xbd5ca9e7	-0.05387297
6	0x3f6e3c71	0.93060976
7	0x3f5a9896	0.8538908
8	0x3f647383	0.89238757
9	0x3f5045f8	0.81356764
10	0xbe047096	-0.12933573
11	0x3f6e405a	0.9306694
12	0x3f740f99	0.953363
13	0xbdf8947b	-0.121376954
14	0xbe0897df	-0.13339184
15	0x3f6dfeea	0.92967093
16	0x3f695aa4	0.9115393
17	0x3f88cb83	1.0687107
18	0xbd35799c	-0.04430543
19	0xbca24e68	-0.019812778
20	0x3f54068a	0.8282248
21	0x3f48b7ea	0.7840563
22	0xbd8fb0b0	-0.07016122
23	0x3f704671	0.93857485
24	0x3f618fdf	0.88110155
25	0xbca0701d	-0.01958471
26	0x3cecde68	0.028914645
27	0x3f5a90a7	0.8537697
28	0x3f78dc24	0.9721091
29	0x3db63842	0.08897449
30	0x3f612ebf	0.87961954
31	0x3f6713eb	0.9026477

fc3.weight f4 [1, 32]
0	0x3f975192	1.1821768
1	0xbd2f1fc2	-0.042754896
2	0xbd7c18e8	-0.06154719
3	0xbdadca06	-0.084857985
4	0x3f95fa6f	1.1717051
5	0xbd845647	-0.064617686
6	0x3f9413da	1.1568558
7	0x3fa75b86	1.3074806
8	0x3fa6a79d	1.3019902
9	0x3f9e15e5	1.2350432
10	0xbd345f68	-0.0440363
11	0x3fa4e1ea	1.2881444
12	0x3f8feb62	1.1243708
13	0xbe0abdf4	-0.13549024
14	0xbe023c87	-0.12718402
15	0x3f9b77cc	1.2145934
16	0x3fa175c8	1.2614069
17	0x3f95752c	1.1676383
18	0xbdd10863	-0.10206678
19	0xbdab4d1e	-0.08364318
20	0x3f9b69a8	1.2141619
21	0x3fa2e5c0	1.2726364
22	0xbd8740b0	-0.06604135
23	0x3f966f7a	1.175277
24	0x3fa9ebc5	1.3275076
25	0xbe0fd3ce	-0.14045641
26	0xbe1c7020	-0.15277147
27	0x3f98e534	1.1944947
28	0x3f9dbf2b	1.2323965
29	0xbd459d2b	-0.04824559
30	0x3fa63dd9	1.2987624
31	0x3f92f742	1.1481707
