water_capacity_model.pth (torch, 12170 bytes, 5 tensors)

fc1.weight f4 [64, 3]
000000 89 09 a2 bf e2 a4 bc bf 9a c0 cf bf b8 c1 be bf
       -1.265916 -1.4737818 -1.6230652 -1.4902868
000010 df 35 ad 3f c3 72 c6 3f fe ab e5 bf 86 bc e1 3f
       1.3532065 1.5503772 -1.7943113 1.7635658
000020 2d ff d0 bf a3 a1 aa 3f ef d8 b6 bf a6 75 e8 3f
       -1.6327873 1.3330578 -1.4284953 1.8160903
000030 c0 66 ca bf 51 ca 84 bf 6d 1b c7 bf be 3b d2 bf
       -1.5812607 -1.0374242 -1.5555245 -1.6424482
000040 a2 70 9e bf a3 d4 e3 3f 76 a9 dc 3f a2 71 d3 3f
       -1.2378123 1.7799267 1.7239215 1.6519053
000050 3e 3a c1 bf 54 d7 b9 bf 96 78 c1 bf e6 95 d0 bf
       -1.5095899 -1.4518838 -1.5114925 -1.6295745
000060 63 01 d2 bf 34 2d a4 3f 12 b2 cd 3f a6 ca dd bf
       -1.6406673 1.2826295 1.6069968 -1.7327468
000070 49 f6 a3 bf e6 75 ed bf 7c 99 d6 bf 44 05 a8 3f
       -1.2809535 -1.8551605 -1.676559 1.3126607
000080 3f 41 c8 3f f6 c5 9f bf fb cc 96 bf 4d cc a3 3f
       1.5644912 -1.2482288 -1.1781305 1.2796723
000090 09 c0 c9 3f 94 e4 43 bf 83 84 e5 bf 60 92 c4 3f
       1.576173 -0.7652066 -1.7931064 1.535717
0000a0 de d5 dc 3f 91 01 ce 3f a1 63 d7 bf 49 ac d9 3f
       1.7252767 1.6094228 -1.6827279 1.7005702
0000b0 26 22 c6 3f 3a d4 c3 3f d9 bf b5 bf 5c d0 ac 3f
       1.5479171 1.5299141 -1.4199172 1.3501086
0000c0 be f1 e1 3f bd 8e a4 bf 47 a1 dc bf 97 4b c9 bf
       1.7651899 -1.285606 -1.7236718 -1.5726193
0000d0 f2 87 c2 3f 4f c1 eb 3f 63 65 c2 bf 1d e1 74 bf
       1.5197737 1.8418368 -1.5187191 -0.95655996
0000e0 45 21 bc bf fa 08 c2 bf e6 d0 a9 3f 39 42 b7 3f
       -1.4697653 -1.515899 1.3266876 1.4317085
0000f0 1a 77 d0 3f 8e 22 cc 3f 24 cb b4 3f 44 50 d5 3f
       1.6286347 1.5948045 1.4124494 1.666512
000100 de a0 6c bf b3 e8 b8 3f f5 58 9f bf 27 ee d1 3f
       -0.92432964 1.4446014 -1.2449023 1.6400803
000110 c8 46 bc bf 33 29 a3 bf 05 0c dd 3f 01 1d e8 bf
       -1.4709101 -1.2746948 1.7269293 -1.8133851
000120 0e 73 cd 3f 52 50 bd 3f ee 87 c4 bf 25 01 c7 bf
       1.6050737 1.4790137 -1.5353982 -1.5547224
000130 59 4b d6 3f bf 8d bb bf 67 fb cf 3f d3 a0 ac bf
       1.6741744 -1.4652632 1.6248597 -1.348658
000140 09 35 b5 bf b9 13 d6 bf e0 e4 82 bf be 42 cf bf
       -1.415681 -1.6724769 -1.0226097 -1.6192243
000150 88 be ba 3f 8d c5 92 bf 37 2c de bf ca ce d9 bf
       1.4589396 -1.1466538 -1.7357243 -1.7016232
000160 28 7c b5 3f 8f 18 c7 bf ff ee df 3f 0a ee 50 bf
       1.4178514 -1.555437 1.7494811 -0.8161322
000170 b8 c5 df bf 94 31 c7 bf 1a cf c5 bf c4 bf e1 3f
       -1.7482214 -1.5562005 -1.5453827 1.7636647
000180 a7 35 af bf 01 e5 8c bf a9 ca bf bf 35 0f cc 3f
       -1.3688248 -1.1007386 -1.4983722 1.5942141
000190 c7 fe b8 bf 29 08 ca 3f 86 43 c4 3f 83 e6 bc 3f
       -1.4452752 1.578374 1.5333107 1.4757847
0001a0 dc 38 be bf 79 b4 d4 3f 52 7d c5 bf 6c 1f ad 3f
       -1.4861102 1.6617576 -1.542887 1.3525214
0001b0 39 c2 be 3f 49 d9 c7 3f 9b 95 c3 3f c2 29 ae bf
       1.4903022 1.5613185 1.5280031 -1.3606493
0001c0 9e ec 8c bf 56 cb eb bf aa ab a1 3f 94 7d a5 bf
       -1.100971 -1.8421428 1.2630513 -1.2928948
0001d0 27 c4 eb 3f 29 fc c9 bf 62 f5 b4 3f dd c9 d9 3f
       1.8419236 -1.5780078 1.4137385 1.7014729
0001e0 86 1c c8 bf 83 88 7b bf ea 9d e9 bf cf 90 e6 3f
       -1.5633705 -0.98255175 -1.8251317 1.8012942
0001f0 05 06 c5 bf 6d c7 df 3f 44 81 bf 3f 9a 4e bb 3f
       -1.5392462 1.7482735 1.4961324 1.4633362
000200 f5 20 a7 bf 58 09 b3 3f c1 a5 a6 bf ad c0 df bf
       -1.3056933 1.3987226 -1.3019334 -1.7480675
000210 2f 1e dd 3f 20 33 d0 3f d4 e4 c4 3f 4d 44 a5 3f
       1.7274836 1.6265602 1.5382333 1.2911469
000220 d4 c1 c4 bf 46 43 c3 3f ec d5 c0 bf 66 c1 b2 bf
       -1.5371652 1.5254905 -1.5065284 -1.396527
000230 f8 f4 b8 3f 42 5d da 3f c4 ab e7 3f 8b 48 c7 bf
       1.4449759 1.705971 1.8099294 -1.5569013
000240 5b b4 ca 3f 89 a0 b4 bf 5f f4 d3 3f b2 ef c6 3f
       1.583629 -1.4111491 1.6558951 1.5541899
000250 41 52 d3 3f fe ed b1 3f e0 c2 d4 bf fb 6f d0 bf
       1.6509477 1.3900754 -1.6621971 -1.6284174
000260 96 22 c0 3f 33 6a ac 3f 0f ee b7 3f a6 3c c9 bf
       1.5010555 1.346991 1.4369525 -1.5721633
000270 35 6a d1 3f db d0 9b bf f2 f7 ba bf 50 31 d1 3f
       1.6360537 -1.2173113 -1.4606917 1.6343174
000280 12 2b c0 3f 67 dc db 3f 7d 49 b9 3f 6a 06 a8 3f
       1.5013144 1.7176636 1.4475552 1.3126957
000290 47 a8 ca bf 18 6a c4 bf 4b e7 c7 bf 6a 48 b7 3f
       -1.5832604 -1.5344877 -1.561746 1.4318974
0002a0 57 40 a8 bf 7a 9f c8 3f 96 06 bf 3f 56 97 b6 bf
       -1.3144635 1.5673668 1.4923885 -1.4264934
0002b0 30 c0 a2 bf ad 60 c4 3f a1 8a 99 bf df f0 70 bf
       -1.2714901 1.5342003 -1.1995431 -0.9411754
0002c0 79 be da bf a7 06 cf bf 69 3e c8 3f 2f 63 cb bf
       -1.7089378 -1.6173905 1.5644046 -1.5889643
0002d0 fb 91 d2 bf f1 8f ba bf 49 20 db 3f a8 71 d6 3f
       -1.64508 -1.4575177 1.7119228 1.6753435
0002e0 a9 27 b5 3f b1 7a ca bf a8 c4 d9 3f 86 a9 a0 bf
       1.4152728 -1.5818692 1.701314 -1.2551734
0002f0 84 7b ce bf 90 58 ca bf 9f 4e d1 3f 1a c7 f0 3f
       -1.6131444 -1.5808277 1.6352118 1.8810761

fc1.bias f4 [64]
000000 7e 63 ef 3f 43 e6 da 3f e7 ae 5b 3f 5e 42 ad 3f
       1.8702238 1.710152 0.85813755 1.3535879
000010 8f 68 52 3f f2 2e 68 3f 32 ff c6 3f c5 a7 65 3f
       0.82190794 0.9069663 1.554663 0.8970912
000020 81 9f e0 3f 82 76 ea 3f 79 c6 ca 3f da 90 6a 3f
       1.7548677 1.8317416 1.5841819 0.91627276
000030 83 5a c1 3f 40 c9 cf 3f 1a f5 da 3f 3c e4 db 3f
       1.5105747 1.6233292 1.7106049 1.7179027
000040 44 b4 79 3f 5f cd cb 3f c7 ce b4 3f f8 90 b8 3f
       0.9754069 1.5922049 1.4125603 1.4419241
000050 54 5b e3 3f d0 02 cd 3f bc 2f a3 3f de c9 86 3f
       1.7762246 1.6016483 1.2748942 1.0530355
000060 be 49 d2 3f a7 01 5c 3f de 07 77 3f 84 86 a8 3f
       1.6428754 0.8594002 0.9649638 1.3166051
000070 33 82 e2 3f 1b c5 ae 3f c5 33 b3 3f 5b c1 84 3f
       1.7695984 1.3653902 1.4000174 1.0371507
000080 d0 98 7f 3f 45 5f 86 3f 60 94 ba 3f 38 29 96 3f
       0.9984255 1.0497824 1.457653 1.1731329
000090 8c d8 b7 3f 02 c3 b0 3f f8 c8 e7 3f 3a 04 e0 3f
       1.436296 1.3809512 1.8108206 1.750129
0000a0 00 50 9c 3f 7a 6d 5b 3f 36 7a d9 3f 9a cd 55 3f
       1.2211914 0.8571392 1.6990421 0.8351685
0000b0 91 cf 91 3f e8 e0 a8 3f 70 26 d5 3f 41 26 53 3f
       1.1391469 1.3193636 1.6652355 0.82480246
0000c0 f6 ad 9c 3f d4 d9 d6 3f 5f ef 94 3f a0 b5 c9 3f
       1.2240589 1.6785226 1.163555 1.5758553
0000d0 a8 01 95 3f 1f a2 c4 3f 46 38 ce 3f 94 0e be 3f
       1.164113 1.5361975 1.6110923 1.4848199
0000e0 d5 f9 ab 3f 18 3d 74 3f 12 7f c4 3f 99 ab 63 3f
       1.3435618 0.9540572 1.5351279 0.8893371
0000f0 68 cf 7e 3f 19 8b da 3f 57 c6 aa 3f 39 37 ae 3f
       0.99535227 1.7073699 1.3341779 1.3610603

fc2.weight f4 [32, 64]
000000 51 90 10 bc 46 7e 66 bd 12 26 d9 bd 07 30 ab 3d
       -0.00882347 -0.056272767 -0.106029645 0.0835877
000010 61 4f c5 3d f1 72 82 3c 33 4d a9 3d 65 7c a6 3d
       0.09634281 0.015923949 0.08266678 0.08129195
000020 3d 59 a3 3d 16 65 7b 3c 48 96 3f 3d 78 1e 08 be
       0.07976005 0.015343925 0.04677418 -0.13292873
000030 dc c7 96 bd 6a 6d 0d be 9f ae a2 3d b6 11 2c 3c
       -0.07362339 -0.1381127 0.079434626 0.0105022695
000040 2e f5 1c 3d d9 ef 0c 3d f5 4c 0c 3d d9 83 0e be
       0.03831976 0.034408424 0.03425308 -0.13917483
000050 38 4e 2b 3d 9c 8a de 3d 45 21 64 b9 9f 00 a0 3d
       0.041822642 0.108662814 -0.00021756168 0.078126185
000060 dd 56 24 bd 53 04 56 bd 34 9e 99 bc 57 27 7a 3d
       -0.0401219 -0.052250218 -0.018752195 0.061072674
000070 0e be d1 bc 4f 4e dd bd f4 65 e5 3c 6f 6a 23 bd
       -0.02560332 -0.10805952 0.028002717 -0.039896425
000080 bc 4b e3 3b 97 bd 81 bd 4e f8 ac bd c0 f0 c5 3d
       0.0069365185 -0.063349895 -0.08445798 0.0966506
000090 02 af 08 be b4 5a 08 be 33 da d8 bd d9 3c 82 3d
       -0.1334801 -0.1331585 -0.10588493 0.06359262
0000a0 f5 f0 7f 3c f6 a9 5a bb dd 77 63 bd 70 82 78 3c
       0.0156214135 -0.0033365465 -0.055534232 0.0151678175
0000b0 60 ce 05 3d ab 56 a3 3c 44 bf b6 bd de 99 5b bd
       0.032667518 0.019938787 -0.089232 -0.053613536
0000c0 c5 a5 b2 3b 68 9c 27 bd 5c 59 18 bd e7 92 15 3d
       0.00545189 -0.040920645 -0.037194595 0.03651705
0000d0 29 23 ef bd 7d 39 a5 bd 39 02 76 bd c1 db c1 bc
       -0.11676628 -0.08067606 -0.060060713 -0.023664357
0000e0 d7 a7 ba 3d 7e 6c 81 3d 2c 13 b7 3d 44 fc b6 bc
       0.09114044 0.06319521 0.089392036 -0.022337086
0000f0 e3 b6 fb bd e3 4b 0e be d3 76 44 3d 21 22 06 bd
       -0.12290742 -0.13896136 0.047964882 -0.03274739
000100 16 b0 a4 bd 0b c2 c0 bd d6 09 6b bd 52 46 c1 3c
       -0.08041398 -0.09412011 -0.057382427 0.023593102
000110 b7 47 f2 bd f8 89 37 3d 6a a9 20 3d 1b d6 64 bc
       -0.11830085 0.04480931 0.039224066 -0.013967062
000120 6d 19 b9 bd 46 f5 02 be 12 07 a2 bc 66 32 05 be
       -0.09038053 -0.12788877 -0.019778762 -0.13007507
000130 17 c9 c3 3d 20 3b e0 bc 62 e2 17 3d 42 f7 c5 bd
       0.09559839 -0.027371943 0.03708113 -0.09666301
000140 77 b5 3b 3d 64 d1 13 3d 85 72 02 bd e9 e2 d8 3c
       0.045827355 0.036088362 -0.031847496 0.026475387
000150 54 ef 3b bd bf 42 4b 3d 23 97 7b bd 57 41 98 3d
       -0.045882538 0.0496242 -0.061423432 0.074343376
000160 8b 45 bc 3d f0 e6 9a 3d 56 6c 16 3d 42 db 9c bd
       0.09192952 0.07563579 0.03672441 -0.076590076
000170 af 7d 84 bd fc e2 16 bd 55 20 82 bd 08 f5 ba 3d
       -0.06469285 -0.036837563 -0.06353823 0.09128767
000180 26 61 ca bd a5 8c d4 bd 4b 53 cb bd ef c0 dc bd
       -0.09881811 -0.10378388 -0.09927996 -0.10778987
000190 d1 1f 96 3d 2e fb 06 bd 68 9f 8e 3d 11 e7 dd bd
       0.07330287 -0.032954387 0.06963998 -0.10835088
0001a0 5e ea ed bc 18 f6 54 3d 43 62 2b bd e0 eb 6c 3c
       -0.029042419 0.051992506 -0.041841757 0.014460534
0001b0 43 66 8c bc dc d7 5d 3d 02 05 23 bd 65 70 11 be
       -0.017138606 0.054160938 -0.039799698 -0.14203031
0001c0 20 4e c2 bd 82 3d 3a bd 62 c3 60 3d 62 5c 0b be
       -0.094875574 -0.045468815 0.05487383 -0.1360946
0001d0 9d 80 d2 bc a2 e2 73 3c 2e 25 16 3d 4c 00 51 bd
       -0.025696093 0.014885576 0.03665655 -0.051025674
0001e0 70 b2 9a bd 1e 08 75 3d 94 33 93 3d ad 48 6b 3d
       -0.075535655 0.059822194 0.07187572 0.057442356
0001f0 92 16 08 be 77 7a 86 3c 33 f7 84 3d f8 5f a6 3d
       -0.1328986 0.016415818 0.06492462 0.08123773
000200 59 a1 90 3f 95 5f 8f 3f 9a c8 ae 3f 61 0c 86 3f
       1.1299239 1.1201044 1.3654969 1.0472528
000210 51 b0 9c 3f 6b 47 93 3f a4 34 a3 3f a2 29 a4 3f
       1.2241307 1.150617 1.275044 1.2825205
000220 fa 53 95 3f 3f 42 7c 3f 01 20 a4 3f f6 04 a4 3f
       1.1666253 0.98538584 1.2822267 1.2814014
000230 ab 67 91 3f f4 b1 8b 3f 0f 80 91 3f cd 56 8f 3f
       1.1359762 1.0913682 1.1367205 1.1198364
000240 46 9b 97 3f 00 04 9a 3f b4 ae 98 3f 3d 5b a3 3f
       1.1844261 1.2032471 1.1928315 1.2762219
000250 15 e4 a4 3f 32 c6 97 3f f8 66 9d 3f e6 c9 9a 3f
       1.2882105 1.185736 1.2297049 1.2092865
000260 a1 a0 a0 3f c8 5d b5 3f 73 e1 a9 3f 02 e7 8e 3f
       1.254902 1.4169245 1.3271927 1.1164248
000270 1f bf 9f 3f 7c cb a6 3f c8 31 90 3f c3 c7 94 3f
       1.24802 1.3030849 1.1265192 1.1623462
000280 32 5b 9b 3f ca aa 91 3f d0 d5 98 3f ac 9b 92 3f
       1.2137206 1.1380246 1.194025 1.1453757
000290 8b 51 93 3f 0a 0d 84 3f 31 34 7d 3f 8c 0b 9a 3f
       1.150926 1.0316479 0.9890776 1.2034774
0002a0 2d e3 a4 3f 17 17 90 3f 5e b7 9c 3f 4d 30 a9 3f
       1.2881829 1.1257046 1.2243459 1.3217865
0002b0 43 97 9e 3f 39 41 95 3f c0 c0 81 3f 4b 76 b2 3f
       1.2389911 1.1660529 1.0136948 1.394235
0002c0 d6 f7 94 3f 89 47 8c 3f f9 a2 93 3f 81 19 95 3f
       1.1638134 1.0959331 1.153411 1.1648408
0002d0 77 1e 9d 3f 5b a6 8a 3f 11 39 a4 3f ae 27 8c 3f
       1.2274922 1.0832018 1.2829915 1.0949609
0002e0 1b 60 95 3f 1e 2d 96 3f 3e 7c 8b 3f 6e ac ab 3f
       1.1669954 1.1732519 1.0897291 1.3411996
0002f0 62 83 a2 3f 88 8d 94 3f 39 cc 99 3f 9d 64 a6 3f
       1.2696345 1.1605692 1.2015449 1.2999455
000300 be f7 0d be 9d 78 46 3d 2e cd 91 3d 96 21 0a be
       -0.13864037 0.04845487 0.07119213 -0.13489375
000310 d3 0f 04 be d0 9a ca bd fa 4a a6 3d 71 af 6a 3d
       -0.12896661 -0.098928094 0.081197694 0.05729622
000320 56 0c 0c be 3c f0 8e 3d 08 9c 0b be 3e c3 11 be
       -0.13676581 0.06979415 -0.1363374 -0.14234635
000330 23 be 09 bd 0f 65 a2 bd 9a 50 ab 3c 3b 9f af 3d
       -0.033628594 -0.07929432 0.020912457 0.08575293
000340 7a 75 01 bd 9c 76 3e 3b b8 02 d7 3c e5 f9 43 bd
       -0.031606175 0.0029062396 0.026246414 -0.04784574
000350 a0 1f 26 bd 6f 30 08 be 73 2b cd 3d 8a 79 02 be
       -0.040557504 -0.13299726 0.10018053 -0.12741676
000360 ff 87 ec bd 6a 41 88 bd 78 80 e7 bd 5b f9 09 be
       -0.11549377 -0.06653102 -0.113038 -0.13474028
000370 f7 db 08 3d 78 85 00 be 53 76 93 3d ec c6 fc bd
       0.0334129 -0.12550914 0.07200303 -0.12342629
000380 96 79 f0 bc 5c f9 aa 3d 39 fd 34 bd 00 a6 07 be
       -0.029354852 0.08348343 -0.044186804 -0.13246918
000390 a6 22 46 bd 46 e8 ab 3d fd 23 cc 3c 96 30 5f 3d
       -0.048372887 0.08393912 0.024919504 0.054489695
0003a0 45 c3 1c 3c 93 b6 17 3c ad a9 f8 bd 8a a0 c9 bc
       0.00956804 0.009259838 -0.12141738 -0.024612684
0003b0 59 3f a8 bb d7 2d b4 bc 42 48 fe bc b1 19 b7 3d
       -0.0051345048 -0.021994514 -0.031040315 0.08940447
0003c0 e9 5c bf bd 88 5c 8e bd 3d 24 f6 bd be 45 bd bd
       -0.09343893 -0.06951243 -0.12018631 -0.09241818
0003d0 6d 86 a3 3d fb 2b 83 bd 41 4e 04 be 51 58 c3 3d
       0.07984624 -0.06404873 -0.12920476 0.095383294
0003e0 ee de 97 3d 90 c7 e0 3d 23 17 cf bb 94 2a f9 bd
       0.07415567 0.109755635 -0.006319897 -0.12166324
0003f0 f3 35 8c bd 82 6d f5 bc 3a 65 b5 3d d8 f6 c7 3c
       -0.068462275 -0.029959444 0.08857198 0.024409696

fc2.bias f4 [32]
000000 98 e0 52 bd 7b a9 88 bc 3d 4a 88 3f 78 cb 58 3d
       -0.05148372 -0.016682377 1.0647656 0.052928418
000010 c6 7d 52 3f 82 b2 22 3c b0 d3 db bd 81 d2 6f 3f
       0.82223165 0.009930255 -0.107337356 0.9368058
000020 53 2c 88 3f 8d 67 8c 3f 20 6d 8a 3d 04 6a 8b 3f
       1.0638527 1.0969101 0.06759095 1.0891728
000030 7b f9 79 3f bc eb 8b 3c 6f e0 2e 3d 74 9d e7 3b
       0.976463 0.01708018 0.042694505 0.0070683304
000040 1f a6 8b 3f a0 22 89 bb cc 59 6b 3f 10 42 b1 bd
       1.0910071 -0.004185036 0.91933894 -0.086551785
000050 2b 52 cd bd b3 61 7d bd 78 f9 6a 3f b7 c0 85 3f
       -0.10025438 -0.06186075 0.9178691 1.0449437
000060 d5 1d ef 3c 97 b3 6a 3f c9 e7 87 3f bf 9c 6a 3f
       0.02918903 0.9168028 1.061761 0.91645426
000070 83 d8 80 3f 60 ee a6 3d 45 c7 b0 bc b2 1f 44 bd
       1.0066074 0.08150935 -0.021579394 -0.04788179

fc3.weight f4 [1, 32]
000000 42 d5 ea bd bb 9e c1 bd 1a e7 ac 3f 1e 44 45 bd
       -0.11466457 -0.094541036 1.3508027 -0.048160665
000010 91 6d b4 3f 4e cc f6 bc b6 ee f4 bd 02 15 b7 3f
       1.4095937 -0.030126717 -0.11959593 1.4303286
000020 2e 57 a2 3f 46 6e a8 3f c1 51 81 bd 9a 29 a1 3f
       1.2682855 1.3158653 -0.063144214 1.2590821
000030 a1 8b b4 3f d7 f9 31 bd b4 b9 91 bd 29 c7 1f bd
       1.4105111 -0.043451156 -0.07115498 -0.039008293
000040 c2 bb a7 3f 42 7d 93 3d 86 66 a8 3f a6 34 17 bd
       1.3104174 0.072016254 1.3156288 -0.036915444
000050 af b3 0a bd 18 48 f6 bd 32 e2 ad 3f 15 ed b3 3f
       -0.033862766 -0.120254695 1.3584654 1.4056727
000060 a3 e3 fb bd 74 ee af 3f 0b ee 9a 3f 54 a3 b7 3f
       -0.12299278 1.3744645 1.2103895 1.4346719
000070 17 c6 a5 3f 68 79 e6 bd 77 94 79 bc ce ef 8d bc
       1.2951077 -0.11253625 -0.015233151 -0.017326262
