water_capacity_model.pth (torch, 12170 bytes, 5 tensors)

fc1.weight f4 [64, 3]
00000000: a298 963f 8f2f 85bf 1a02 f43f f045 903f
00000010: 080a b5bf 2d09 b5bf 11b5 8f3f 2fb9 acbf
00000020: 60a7 e6bf fef5 bebf fa46 bebf 27b3 c9bf
00000030: 5588 9ebf dbb7 ba3f 5f2a be3f dfec afbf
00000040: fd94 a53f 1641 c8bf 2f8b a83f bac1 c93f
00000050: 0cef dbbf 95ec c7bf b56a cc3f a11e ef3f
00000060: 0c67 b93f cf43 a6bf a9f5 c2bf 23bf 683f
00000070: a907 c1bf 6394 d63f f734 cebf 58a6 92bf
00000080: dcd8 9fbf 1309 b13f 6f54 b93f cff1 bd3f
00000090: 77d3 d53f 25b2 db3f 59a4 c1bf 0830 d63f
000000a0: 2801 b6bf b661 a5bf 67a4 cdbf c375 d13f
000000b0: 4501 cabf 0063 903f 3895 2cbf 85bd c2bf
000000c0: f148 983f 7482 bcbf 660b d33f fa7d a63f
000000d0: 0f82 a0bf 6dc0 f53f 0223 cb3f d3aa 59bf
000000e0: 5475 9bbf a430 b33f 281a 82bf 1432 acbf
000000f0: 5a1c cbbf eb2e 93bf 446e 87bf 5f72 e4bf
00000100: 0506 a3bf 4369 ec3f 46e6 dabf 18a8 ac3f
00000110: f79f 9fbf 258d d23f c286 c33f 5369 cabf
00000120: 364d d1bf 16f8 b83f 0629 ed3f 929c 3c3f
00000130: a0f1 9ebf 9812 d43f a991 dfbf 4dff b1bf
00000140: 1faf e93f 9593 b03f 2cfc bc3f 93c8 acbf
00000150: d1c6 b23f f8f3 aabf 4426 abbf 28ea cb3f
00000160: 94e8 9ebf 4b16 cabf 9961 e1bf 8ba2 c53f
00000170: f8fd c3bf 417f aabf c1ed cb3f 0608 aabf
00000180: 96b1 783f a61e 8dbf 612d b93f 77bf b33f
00000190: 7f1f da3f fc6c 93bf 7d2e e4bf 3d34 babf
000001a0: df37 e73f d27e bc3f 5cc0 dd3f 24f0 aebf
000001b0: e314 b33f 2bb5 a2bf 820e e13f ffca aebf
000001c0: 4fd5 d93f 910b a5bf 36e3 a73f 2fe7 68bf
000001d0: 0236 dabf 57c6 823f fefd a0bf f6a3 c83f
000001e0: 3a8a ecbf adc2 8f3f 5a0d ef3f bd45 bfbf
000001f0: 4776 babf 075b adbf dfa0 8b3f 3daa a93f
00000200: f499 da3f a1c7 b5bf 321d adbf 401e a8bf
00000210: 8cd3 ba3f ec08 c83f 799d ee3f cc33 b93f
00000220: a1bb d33f 2941 e13f e19a 663f c682 bfbf
00000230: eefd cb3f 1519 ccbf 6b1c c13f 7cc3 9fbf
00000240: 1547 9d3f 3f87 b53f 7914 e13f b958 8d3f
00000250: a252 c6bf 3521 bb3f cc7e b33f dfe1 31bf
00000260: 6ecc aebf 9f28 d53f 3ac1 b0bf c2d8 90bf
00000270: 9a35 c6bf feba cd3f 7eb1 f33f 6651 e4bf
00000280: 41a5 bf3f b695 cb3f 1632 8d3f 5c07 a8bf
00000290: 7da1 cf3f 0673 c1bf a4b8 b8bf d0b8 bfbf
000002a0: a0e0 cfbf c080 b23f ed23 bcbf 56bf dcbf
000002b0: d257 d43f 1820 afbf 705b bcbf b3f1 b0bf
000002c0: 5616 8abf 9800 bdbf 60f7 d03f 2327 db3f
000002d0: e786 d8bf 6b46 a33f adeb bebf 05c4 943f
000002e0: 694b af3f 4e70 df3f 48f7 ce3f 0b28 d53f
000002f0: 7aff d2bf ef06 cdbf acf7 aebf 9445 cbbf
1.176533 -1.0405139 1.9063141 1.1271343 -1.4143686 -1.4143425 1.1227132 -1.3494014
-1.8019829 -1.4918821 -1.486541 -1.5757798 -1.2385355 1.4587358 1.4856681 -1.3744162
1.2936093 -1.5644863 1.3167475 1.5762246 -1.7182326 -1.5619074 1.5970064 1.8681222
1.4484572 -1.2989444 -1.523122 0.9091665 -1.5080463 1.6764034 -1.6109914 -1.1457014
-1.2488055 1.3830894 1.4478892 1.4839419 1.6705159 1.716374 -1.512828 1.6733408
-1.4219103 -1.2920444 -1.6065797 1.6364063 -1.5781637 1.1280212 -0.6741519 -1.5214087
1.189726 -1.4727311 1.6487854 1.3007195 -1.2539691 1.9199349 1.5870059 -0.8502628
-1.2145181 1.3999219 -1.0164232 -1.3452783 -1.5868027 -1.1498693 -1.0580525 -1.7847403
-1.2736212 1.8469623 -1.7101524 1.3488798 -1.2470692 1.6449324 1.52755 -1.5813392
-1.6351688 1.445071 1.8528144 0.7367641 -1.2417488 1.6568174 -1.7466327 -1.3906037
1.8256568 1.3795038 1.4764457 -1.349871 1.3966924 -1.3355703 -1.3371053 1.5930834
-1.2414727 -1.5788053 -1.760791 1.5440229 -1.531188 -1.3320085 1.5931932 -1.3283699
0.97145975 -1.1024978 1.4466974 1.4042805 1.7040862 -1.1517634 -1.7826687 -1.4547192
1.8063926 1.4726202 1.7324328 -1.3667035 1.3990749 -1.2711538 1.7582552 -1.36557
1.7018222 -1.2894155 1.3116214 -0.9097776 -1.7047732 1.0216779 -1.2577512 1.5675037
-1.8479683 1.1231285 1.867595 -1.4943157 -1.4567345 -1.3543404 1.0908469 1.3255078
1.7078233 -1.4201547 -1.3524535 -1.3134232 1.4595809 1.5627723 1.8641807 1.4468932
1.6541635 1.759801 0.90080076 -1.4961784 1.5936868 -1.5945154 1.5086797 -1.2481532
1.2287318 1.4181899 1.7584373 1.1042701 -1.5493968 1.4619509 1.402307 -0.69485277
-1.3656137 1.6653022 -1.3808968 -1.1316149 -1.5485108 1.607269 1.9038541 -1.7837341
1.4972306 1.5905063 1.103091 -1.3127246 1.6221157 -1.5113227 -1.4431348 -1.4978275
-1.6240425 1.3945541 -1.4698464 -1.7245891 1.6589301 -1.3681669 -1.4715405 -1.3823761
-1.0788066 -1.4765806 1.6325493 1.7121319 -1.6916169 1.2755865 -1.4915673 1.162232
1.3694888 1.7456148 1.6169214 1.6652845 -1.6484215 -1.6017741 -1.3669333 -1.5880609

fc1.bias f4 [64]
00000000: d4c5 c43f b885 ba3f 7bb1 913f 2ff3 aa3f
00000010: de8d e63f 3ef0 6f3f 2116 a43f 74bd a43f
00000020: f9a0 3b3f 00c8 453f 7e16 ba3f 59a3 943f
00000030: 1268 a13f 3bcb 693f 62b9 853f d1c7 d73f
00000040: c2c7 d13f eac5 593f c106 d73f 03ca 7c3f
00000050: 763a c43f 8a24 c93f f19b 6b3f e878 803f
00000060: 1bff c93f d482 9f3f 9f36 993f 9ae0 403f
00000070: b973 993f 3787 c13f c66c 4f3f 07ab a33f
00000080: 7e1c 7d3f d9f5 a43f 2aa7 b63f 70fe 463f
00000090: 259a 9a3f c671 b93f e64d 3d3f f9f5 e03f
000000a0: 25c9 ea3f 58d0 553f bc54 bc3f f1b0 c53f
000000b0: 573f a03f c41c be3f 2ae5 963f b02f 5b3f
000000c0: b82e e33f 4ac7 813f 7634 933f 27b4 c23f
000000d0: 7365 b13f 809e aa3f 18dc a73f a3fb 903f
000000e0: 1ac2 533f 3876 b53f 48cf 743f d18f b93f
000000f0: 15d7 be3f f663 e43f 88dc cd3f 54e8 5d3f
1.5372872 1.4572058 1.1382288 1.3355464 1.8012044 0.93725955 1.2819253 1.2870317
0.732925 0.772583 1.4538114 1.161235 1.2609885 0.9132573 1.0447199 1.6857854
1.6389086 0.8506762 1.6798936 0.98745745 1.5330341 1.5714276 0.9203482 1.0036898
1.5780977 1.24618 1.1969794 0.75342715 1.1988441 1.5119389 0.8102535 1.2786568
0.988716 1.2887527 1.4269764 0.7773199 1.2078291 1.4487846 0.7394699 1.7575065
1.8342634 0.8352103 1.4713359 1.5444623 1.251933 1.4852529 1.1788685 0.8561964
1.7748632 1.0138943 1.1500385 1.5211228 1.3859085 1.332962 1.3114042 1.1326793
0.8271805 1.4176702 0.95628786 1.4497014 1.4909388 1.7843006 1.6082926 0.8668263

fc2.weight f4 [32, 64]
00000000: 116e 943f 2191 853f bc04 843f b227 a23f
00000010: 8322 a23f 7825 ae3f cdd4 923f 643a a33f
00000020: 4f99 8e3f f12c a23f 65f3 9e3f 4711 b13f
00000030: 4d08 973f 1e62 923f dca1 a63f 1c52 8f3f
00000040: 5e65 8e3f 4bf0 903f bf77 983f b264 983f
00000050: 9cad 8f3f 40b9 a23f 6d07 983f 07af 9b3f
00000060: 07b3 9e3f 4aa7 9c3f a211 a33f 832c ab3f
00000070: ee36 9b3f 23c0 8b3f 8be2 983f 01e7 a93f
00000080: 3a6f a83f 9779 a03f 72de ad3f 73b2 973f
00000090: 805a 8f3f 9603 a53f 5810 963f 03d5 973f
000000a0: 854b a13f bd57 a23f 85fb a13f 8622 9f3f
000000b0: 1f53 a43f 748b 903f c849 8d3f 93c7 a63f
000000c0: f5d1 8f3f eb60 a83f f4f9 923f 468d 983f
000000d0: 40ec 983f a05b b13f 5df1 8d3f 3561 a73f
000000e0: 6093 a93f f71f 973f ab34 9e3f 248c a43f
000000f0: 278c 9a3f c603 a63f 89b3 9d3f 6582 a13f
00000100: f0ef c33d c4e3 c43d 5463 2abd 5ca9 7ebd
00000110: 55fd e2bd 3c88 7dbd ae53 f33d 53e2 83bc
00000120: 0642 e83d 42c7 f73d ae85 2bbd 34c3 b1bd
00000130: 3875 a33d 6e06 b9bd f94d a83c a1ac cabd
00000140: 183a 52bd c07e cbbd 389e 3c3d c691 e6bd
00000150: fb9f b5bd 7993 bcb9 6a1e 653d ba58 cebd
00000160: 6626 0f3d 0049 b6bd 89e0 e1bd d464 d8bd
00000170: a8e9 ebbc 38a1 b4bd 577d bcbd 46db 29bd
00000180: d426 593d d79e 933d 3e20 6abd 7af9 973d
00000190: 9468 f7bd ef39 00be 3820 b03d 7027 74bc
000001a0: 4878 353c 783c 7e3d a58a da3d 33ea adbd
000001b0: 38e1 823d 2afc ecbd b233 a33d 067e 37bd
000001c0: 6b06 b9bd 80ce 90bc 3cc0 d53d 74c9 413d
000001d0: abbd 9cbd 9f91 dc3d 009a 8e3b a4e6 fbbd
000001e0: 2963 cf3b 9045 3e3b d806 b8bd 5799 d13d
000001f0: 01d9 c23d 12b0 0b3d 4eaf b0bd 5495 2fbd
00000200: ed14 563d 1fd8 7cbd 4ab6 b6bd 1e12 42bd
00000210: b6b4 c63d b4bf 06be 1efa 1a3c 7440 553d
00000220: e855 05be 3f17 c43d aca0 873d 4cec 383b
00000230: 4c12 ffbd 2ff4 0fbe 8f64 483c 250f b23d
00000240: 9479 163d a8a5 ad3c 60d6 4b3d 0407 353d
00000250: 76cb d8bd a8f8 ac3c adfc 6a3d 1a2c 11be
00000260: d22e abbc 60dc 9b3d 1d63 99bb 2baa 26bd
00000270: c5ff 843d 5d35 8e3d 1f37 e4bd 2146 a23c
00000280: c762 87bd 331e f7bd 3344 03be 478d af3d
00000290: 616f 823d 1291 12be e8b2 a5bd 87d5 d1bd
000002a0: 5ed6 97bd 7124 98bd 5ada ffbd ea1c 3c3c
000002b0: b034 05bd ad84 bd3d 1070 0dbe 00ea 433d
000002c0: 9e47 fcbb ab6b 8bbd 5bc4 00be 8803 94bd
000002d0: 5aeb 05be 49dd 803d bc20 7b3d 52ee 9bbd
000002e0: 26a8 093d bd28 893d 054f 1ebd 3cff c23d
000002f0: f12e f8bd ccf9 60bd 4a27 0b3d 1d57 f1bb
00000300: 6893 e9bb f85c a93d cfaf 7ebd 96bb 0cbd
00000310: 3265 b3bd 8406 34bd 8526 c4bb 88bd 033d
00000320: 3001 03be ea4e d13a 0aa1 b4bd 1037 543d
00000330: bda6 4c3d e8c2 093d 3a9b ebbd 3459 18bc
00000340: e47e a9bd 14e4 d93d 3e4b 9a3d 88f3 d73d
00000350: e554 cfbc 5410 7bbd 00e8 89bd 798a 08bd
00000360: 54e0 023d b2c2 d0bd f0ee 35bd 080b f0bd
00000370: 8db0 133c 5d66 143d ee3a adbd 0041 baba
00000380: 2006 80bb 08ba bd3c 50a6 96bd 4687 c9bd
00000390: 3f6b 6dbd d219 87bd 9060 acbd 0439 bcbd
000003a0: 088d 683d e41b e03d 005a 3bba bf88 03be
000003b0: e0c2 62bd 1abe 97bd 307f 3d3d f217 d73d
000003c0: 0af9 69bd 9cba c83d e142 0d3d 6501 8dbd
000003d0: e4db a4bd 50e6 29bc b29e 98bd 2648 b5bd
000003e0: b0ea 613d 0ce1 623d 82a6 dc3d 3ce9 eb3d
000003f0: 5a2e c8bd 72b6 5f3b 7629 fa3b c0c4 d43d
1.159609 1.0434915 1.0313945 1.2668364 1.2666782 1.3605185 1.1471192 1.2752194
1.1140536 1.2669965 1.2418028 1.3833398 1.1799408 1.1436193 1.3018146 1.1196933
1.1124685 1.1323332 1.1911544 1.190573 1.1224856 1.2712784 1.1877266 1.2162789
1.2398385 1.2238553 1.2739756 1.3372959 1.2126138 1.091801 1.1944135 1.3273622
1.3158944 1.2537106 1.358351 1.1851333 1.1199493 1.2891719 1.1723738 1.1861881
1.2601172 1.2683026 1.2654883 1.2432411 1.2837867 1.1292558 1.1038141 1.3029655
1.1235949 1.3154577 1.148253 1.1918113 1.1947098 1.3856087 1.1089283 1.307654
1.32481 1.180663 1.2359823 1.2855268 1.2074021 1.2969902 1.2320415 1.2617918
0.09567249 0.09613755 -0.041598633 -0.062173232 -0.110834755 -0.0618975 0.11881195 -0.01609913
0.11340718 0.12098552 -0.041875534 -0.0867981 0.07981342 -0.090344295 0.020544993 -0.098962076
-0.051324934 -0.09936285 0.046049327 -0.11258273 -0.088684045 -0.0003596803 0.05593721 -0.10075517
0.03494873 -0.089006424 -0.11029155 -0.105661064 -0.02879794 -0.088198125 -0.09203594 -0.04146888
0.053015545 0.07208031 -0.057159655 0.07420631 -0.120804936 -0.125221 0.08599895 -0.014901981
0.011076041 0.062069386 0.106709756 -0.084919356 0.06390613 -0.11571534 0.079688445 -0.04479792
-0.09034427 -0.017676592 0.104370564 0.04731126 -0.07653364 0.107699625 0.0043518543 -0.122998506
0.0063289595 0.0029033162 -0.0898568 0.102343254 0.095140465 0.03410346 -0.08627187 -0.04286702
0.05226605 -0.061729547 -0.08921488 -0.04738056 0.097024366 -0.13159066 0.009459047 0.05206342
-0.13021052 0.09574746 0.066224426 0.0028217016 -0.12454662 -0.14057992 0.012231006 0.08694295
0.03673704 0.021197155 0.04976499 0.044196144 -0.10585682 0.021114662 0.057369877 -0.1417698
-0.02089635 0.076103926 -0.0046810047 -0.04068963 0.06494097 0.06943772 -0.11143326 0.01980883
-0.06610637 -0.12066307 -0.12818985 0.085718684 0.063689 -0.14313152 -0.08090764 -0.10245805
-0.07413934 -0.07428826 -0.12492819 0.011481503 -0.03252095 0.092538215 -0.1381228 0.04783058
-0.007698967 -0.068076454 -0.12574904 -0.07227236 -0.13078061 0.06292207 0.061310515 -0.07613815
0.033607624 0.06697223 -0.038649578 0.09521338 -0.12118328 -0.054925725 0.033973016 -0.007365121
-0.007128168 0.082696855 -0.062179383 -0.034358583 -0.08759536 -0.043951526 -0.005986037 0.032163173
-0.12793422 0.0015968953 -0.08819778 0.051810324 0.0499637 0.033633143 -0.115042165 -0.009298611
-0.082761556 0.106392056 0.075338826 0.10544497 -0.025309036 -0.06129487 -0.067337036 -0.033335183
0.031952217 -0.10193385 -0.04441732 -0.11720854 0.009014261 0.036230434 -0.084585056 -0.0014210045
-0.00390698 0.023159996 -0.0735594 -0.098402545 -0.057963606 -0.06596722 -0.08416855 -0.09190562
0.056775123 0.1094282 -0.0007146895 -0.12845133 -0.05536163 -0.07409306 0.046263874 0.10502614
-0.057122268 0.09801218 0.03448761 -0.068850316 -0.08049753 -0.010369852 -0.07452144 -0.08851652
0.055155456 0.055390403 0.10773946 0.11519095 -0.09774466 0.0034135845 0.007634337 0.103890896

fc2.bias f4 [32]
00000000: bb0f 823f 5dd6 ecbd a7f9 8bbd 2e53 f2bc
00000010: 3919 693f 062a 813f f73c 803f d0aa 7b3f
00000020: 3d88 02be e68f 703f 8120 833f 6f3d 87bd
00000030: d686 503f 62b2 b2bd ba38 713f ad0c 7e3f
00000040: 8806 733d 5865 983d 1d29 aabd 8f45 9bbd
00000050: 3cfc 6c3f cfb3 703f 063b fcbd abef f5bd
00000060: a69e 753f 6b4d 06bd 40fa a8bc a245 873f
00000070: b7de 7f3f 84ad 773f d2bb 8c3f 64b5 493b
1.016105 -0.11564324 -0.06834727 -0.029580679 0.9105411 1.009095 1.0018605 0.98307514
-0.12747283 0.9396957 1.0244294 -0.066035144 0.81455743 -0.0872543 0.9422718 0.9923809
0.0593324 0.07441205 -0.08308623 -0.075816266 0.9257238 0.94024366 -0.12315945 -0.12008604
0.95945203 -0.032788675 -0.020627141 1.0568125 0.9994921 0.9674914 1.0994818 0.0030778283

fc3.weight f4 [1, 32]
00000000: 9f44 983f bf0b b0bd 55af 0abe 87d7 55bd
00000010: 95fb 9d3f 3332 b03f 1f35 ab3f fb59 aa3f
00000020: 406a b7bd 4d83 a03f 58e1 a43f 0f97 17be
00000030: 3b54 ab3f 3e38 9fbc 011f 9c3f 1f95 aa3f
00000040: 50a9 e8bc 13bc 8fbd ccef b2bd c168 8bbc
00000050: 1be5 a63f bc40 993f a937 16be 8c74 04be
00000060: 4502 a23f bf9d a5bc 5f50 66bd 5e77 a63f
00000070: dda3 a33f dbc6 973f 6c26 9c3f b9cf 90bd
1.1895941 -0.085959904 -0.13543446 -0.052207496 1.2342402 1.376532 1.3375586 1.330871
-0.089558125 1.254007 1.288127 -0.14803718 1.338508 -0.019435998 1.2196962 1.3326758
-0.028401047 -0.07018294 -0.08737144 -0.017017724 1.3038667 1.197288 -0.1466967 -0.12935084
1.2656943 -0.02021682 -0.05622899 1.3005178 1.2784382 1.1857561 1.2199225 -0.0707087
